save path : ./checkpointResNet20_CIFAR10_0.9_2_seed
Namespace(Alpha=0.9, Beta=2, arch='resnet20', batch_size=128, dataset_path='../data/CIFAR10', epochs=200, evaluate=False, lr=0.1, momentum=0.9, print_freq=20, resume='', save_dir='./checkpointResNet20_CIFAR10_0.9_2_seed', start_epoch=0, weight_decay=0.0005, workers=4)
=> creating model 'resnet20'
=> network :
 ResNet(
  (conv1): Conv2d(3, 16, kernel_size=(3, 3), stride=(1, 1), padding=(1, 1), bias=False)
  (bn1): BatchNorm2d(16, eps=1e-05, momentum=0.1, affine=True, track_running_stats=True)
  (layer1): Sequential(
    (0): BasicBlock(
      (conv1): BasicModule(
        (shortcut): Sequential(
          (0): Conv2d(16, 32, kernel_size=(1, 1), stride=(1, 1), bias=False)
          (1): BatchNorm2d(32, eps=1e-05, momentum=0.1, affine=True, track_running_stats=True)
        )
        (DW): Sequential(
          (0): Conv2d(14, 28, kernel_size=(3, 3), stride=(1, 1), padding=(1, 1), groups=14, bias=False)
          (1): BatchNorm2d(28, eps=1e-05, momentum=0.1, affine=True, track_running_stats=True)
        )
        (Conv): Sequential(
          (0): Conv2d(2, 4, kernel_size=(3, 3), stride=(1, 1), padding=(1, 1), bias=False)
          (1): BatchNorm2d(4, eps=1e-05, momentum=0.1, affine=True, track_running_stats=True)
        )
        (se): SqueezeExcite(
          (avg_pool): AdaptiveAvgPool2d(output_size=1)
          (conv_reduce): Conv2d(32, 8, kernel_size=(1, 1), stride=(1, 1))
          (relu): ReLU(inplace=True)
          (conv_expand): Conv2d(8, 32, kernel_size=(1, 1), stride=(1, 1))
        )
      )
      (conv2): BasicModule(
        (shortcut): Sequential(
          (0): Conv2d(32, 16, kernel_size=(1, 1), stride=(1, 1), bias=False)
          (1): BatchNorm2d(16, eps=1e-05, momentum=0.1, affine=True, track_running_stats=True)
        )
        (DW): Sequential(
          (0): Conv2d(28, 14, kernel_size=(3, 3), stride=(1, 1), padding=(1, 1), groups=14, bias=False)
          (1): BatchNorm2d(14, eps=1e-05, momentum=0.1, affine=True, track_running_stats=True)
        )
        (Conv): Sequential(
          (0): Conv2d(4, 2, kernel_size=(3, 3), stride=(1, 1), padding=(1, 1), bias=False)
          (1): BatchNorm2d(2, eps=1e-05, momentum=0.1, affine=True, track_running_stats=True)
        )
        (se): SqueezeExcite(
          (avg_pool): AdaptiveAvgPool2d(output_size=1)
          (conv_reduce): Conv2d(16, 4, kernel_size=(1, 1), stride=(1, 1))
          (relu): ReLU(inplace=True)
          (conv_expand): Conv2d(4, 16, kernel_size=(1, 1), stride=(1, 1))
        )
      )
      (shortcut): Sequential()
    )
    (1): BasicBlock(
      (conv1): BasicModule(
        (shortcut): Sequential(
          (0): Conv2d(16, 32, kernel_size=(1, 1), stride=(1, 1), bias=False)
          (1): BatchNorm2d(32, eps=1e-05, momentum=0.1, affine=True, track_running_stats=True)
        )
        (DW): Sequential(
          (0): Conv2d(14, 28, kernel_size=(3, 3), stride=(1, 1), padding=(1, 1), groups=14, bias=False)
          (1): BatchNorm2d(28, eps=1e-05, momentum=0.1, affine=True, track_running_stats=True)
        )
        (Conv): Sequential(
          (0): Conv2d(2, 4, kernel_size=(3, 3), stride=(1, 1), padding=(1, 1), bias=False)
          (1): BatchNorm2d(4, eps=1e-05, momentum=0.1, affine=True, track_running_stats=True)
        )
        (se): SqueezeExcite(
          (avg_pool): AdaptiveAvgPool2d(output_size=1)
          (conv_reduce): Conv2d(32, 8, kernel_size=(1, 1), stride=(1, 1))
          (relu): ReLU(inplace=True)
          (conv_expand): Conv2d(8, 32, kernel_size=(1, 1), stride=(1, 1))
        )
      )
      (conv2): BasicModule(
        (shortcut): Sequential(
          (0): Conv2d(32, 16, kernel_size=(1, 1), stride=(1, 1), bias=False)
          (1): BatchNorm2d(16, eps=1e-05, momentum=0.1, affine=True, track_running_stats=True)
        )
        (DW): Sequential(
          (0): Conv2d(28, 14, kernel_size=(3, 3), stride=(1, 1), padding=(1, 1), groups=14, bias=False)
          (1): BatchNorm2d(14, eps=1e-05, momentum=0.1, affine=True, track_running_stats=True)
        )
        (Conv): Sequential(
          (0): Conv2d(4, 2, kernel_size=(3, 3), stride=(1, 1), padding=(1, 1), bias=False)
          (1): BatchNorm2d(2, eps=1e-05, momentum=0.1, affine=True, track_running_stats=True)
        )
        (se): SqueezeExcite(
          (avg_pool): AdaptiveAvgPool2d(output_size=1)
          (conv_reduce): Conv2d(16, 4, kernel_size=(1, 1), stride=(1, 1))
          (relu): ReLU(inplace=True)
          (conv_expand): Conv2d(4, 16, kernel_size=(1, 1), stride=(1, 1))
        )
      )
      (shortcut): Sequential()
    )
    (2): BasicBlock(
      (conv1): BasicModule(
        (shortcut): Sequential(
          (0): Conv2d(16, 32, kernel_size=(1, 1), stride=(1, 1), bias=False)
          (1): BatchNorm2d(32, eps=1e-05, momentum=0.1, affine=True, track_running_stats=True)
        )
        (DW): Sequential(
          (0): Conv2d(14, 28, kernel_size=(3, 3), stride=(1, 1), padding=(1, 1), groups=14, bias=False)
          (1): BatchNorm2d(28, eps=1e-05, momentum=0.1, affine=True, track_running_stats=True)
        )
        (Conv): Sequential(
          (0): Conv2d(2, 4, kernel_size=(3, 3), stride=(1, 1), padding=(1, 1), bias=False)
          (1): BatchNorm2d(4, eps=1e-05, momentum=0.1, affine=True, track_running_stats=True)
        )
        (se): SqueezeExcite(
          (avg_pool): AdaptiveAvgPool2d(output_size=1)
          (conv_reduce): Conv2d(32, 8, kernel_size=(1, 1), stride=(1, 1))
          (relu): ReLU(inplace=True)
          (conv_expand): Conv2d(8, 32, kernel_size=(1, 1), stride=(1, 1))
        )
      )
      (conv2): BasicModule(
        (shortcut): Sequential(
          (0): Conv2d(32, 16, kernel_size=(1, 1), stride=(1, 1), bias=False)
          (1): BatchNorm2d(16, eps=1e-05, momentum=0.1, affine=True, track_running_stats=True)
        )
        (DW): Sequential(
          (0): Conv2d(28, 14, kernel_size=(3, 3), stride=(1, 1), padding=(1, 1), groups=14, bias=False)
          (1): BatchNorm2d(14, eps=1e-05, momentum=0.1, affine=True, track_running_stats=True)
        )
        (Conv): Sequential(
          (0): Conv2d(4, 2, kernel_size=(3, 3), stride=(1, 1), padding=(1, 1), bias=False)
          (1): BatchNorm2d(2, eps=1e-05, momentum=0.1, affine=True, track_running_stats=True)
        )
        (se): SqueezeExcite(
          (avg_pool): AdaptiveAvgPool2d(output_size=1)
          (conv_reduce): Conv2d(16, 4, kernel_size=(1, 1), stride=(1, 1))
          (relu): ReLU(inplace=True)
          (conv_expand): Conv2d(4, 16, kernel_size=(1, 1), stride=(1, 1))
        )
      )
      (shortcut): Sequential()
    )
  )
  (layer2): Sequential(
    (0): BasicBlock(
      (conv1): BasicModule(
        (shortcut): Sequential(
          (0): Conv2d(16, 64, kernel_size=(1, 1), stride=(2, 2), bias=False)
          (1): BatchNorm2d(64, eps=1e-05, momentum=0.1, affine=True, track_running_stats=True)
        )
        (DW): Sequential(
          (0): Conv2d(14, 56, kernel_size=(3, 3), stride=(2, 2), padding=(1, 1), groups=14, bias=False)
          (1): BatchNorm2d(56, eps=1e-05, momentum=0.1, affine=True, track_running_stats=True)
        )
        (Conv): Sequential(
          (0): Conv2d(2, 8, kernel_size=(3, 3), stride=(2, 2), padding=(1, 1), bias=False)
          (1): BatchNorm2d(8, eps=1e-05, momentum=0.1, affine=True, track_running_stats=True)
        )
        (se): SqueezeExcite(
          (avg_pool): AdaptiveAvgPool2d(output_size=1)
          (conv_reduce): Conv2d(64, 16, kernel_size=(1, 1), stride=(1, 1))
          (relu): ReLU(inplace=True)
          (conv_expand): Conv2d(16, 64, kernel_size=(1, 1), stride=(1, 1))
        )
      )
      (conv2): BasicModule(
        (shortcut): Sequential(
          (0): Conv2d(64, 32, kernel_size=(1, 1), stride=(1, 1), bias=False)
          (1): BatchNorm2d(32, eps=1e-05, momentum=0.1, affine=True, track_running_stats=True)
        )
        (DW): Sequential(
          (0): Conv2d(56, 28, kernel_size=(3, 3), stride=(1, 1), padding=(1, 1), groups=28, bias=False)
          (1): BatchNorm2d(28, eps=1e-05, momentum=0.1, affine=True, track_running_stats=True)
        )
        (Conv): Sequential(
          (0): Conv2d(8, 4, kernel_size=(3, 3), stride=(1, 1), padding=(1, 1), bias=False)
          (1): BatchNorm2d(4, eps=1e-05, momentum=0.1, affine=True, track_running_stats=True)
        )
        (se): SqueezeExcite(
          (avg_pool): AdaptiveAvgPool2d(output_size=1)
          (conv_reduce): Conv2d(32, 8, kernel_size=(1, 1), stride=(1, 1))
          (relu): ReLU(inplace=True)
          (conv_expand): Conv2d(8, 32, kernel_size=(1, 1), stride=(1, 1))
        )
      )
      (shortcut): LambdaLayer()
    )
    (1): BasicBlock(
      (conv1): BasicModule(
        (shortcut): Sequential(
          (0): Conv2d(32, 64, kernel_size=(1, 1), stride=(1, 1), bias=False)
          (1): BatchNorm2d(64, eps=1e-05, momentum=0.1, affine=True, track_running_stats=True)
        )
        (DW): Sequential(
          (0): Conv2d(28, 56, kernel_size=(3, 3), stride=(1, 1), padding=(1, 1), groups=28, bias=False)
          (1): BatchNorm2d(56, eps=1e-05, momentum=0.1, affine=True, track_running_stats=True)
        )
        (Conv): Sequential(
          (0): Conv2d(4, 8, kernel_size=(3, 3), stride=(1, 1), padding=(1, 1), bias=False)
          (1): BatchNorm2d(8, eps=1e-05, momentum=0.1, affine=True, track_running_stats=True)
        )
        (se): SqueezeExcite(
          (avg_pool): AdaptiveAvgPool2d(output_size=1)
          (conv_reduce): Conv2d(64, 16, kernel_size=(1, 1), stride=(1, 1))
          (relu): ReLU(inplace=True)
          (conv_expand): Conv2d(16, 64, kernel_size=(1, 1), stride=(1, 1))
        )
      )
      (conv2): BasicModule(
        (shortcut): Sequential(
          (0): Conv2d(64, 32, kernel_size=(1, 1), stride=(1, 1), bias=False)
          (1): BatchNorm2d(32, eps=1e-05, momentum=0.1, affine=True, track_running_stats=True)
        )
        (DW): Sequential(
          (0): Conv2d(56, 28, kernel_size=(3, 3), stride=(1, 1), padding=(1, 1), groups=28, bias=False)
          (1): BatchNorm2d(28, eps=1e-05, momentum=0.1, affine=True, track_running_stats=True)
        )
        (Conv): Sequential(
          (0): Conv2d(8, 4, kernel_size=(3, 3), stride=(1, 1), padding=(1, 1), bias=False)
          (1): BatchNorm2d(4, eps=1e-05, momentum=0.1, affine=True, track_running_stats=True)
        )
        (se): SqueezeExcite(
          (avg_pool): AdaptiveAvgPool2d(output_size=1)
          (conv_reduce): Conv2d(32, 8, kernel_size=(1, 1), stride=(1, 1))
          (relu): ReLU(inplace=True)
          (conv_expand): Conv2d(8, 32, kernel_size=(1, 1), stride=(1, 1))
        )
      )
      (shortcut): Sequential()
    )
    (2): BasicBlock(
      (conv1): BasicModule(
        (shortcut): Sequential(
          (0): Conv2d(32, 64, kernel_size=(1, 1), stride=(1, 1), bias=False)
          (1): BatchNorm2d(64, eps=1e-05, momentum=0.1, affine=True, track_running_stats=True)
        )
        (DW): Sequential(
          (0): Conv2d(28, 56, kernel_size=(3, 3), stride=(1, 1), padding=(1, 1), groups=28, bias=False)
          (1): BatchNorm2d(56, eps=1e-05, momentum=0.1, affine=True, track_running_stats=True)
        )
        (Conv): Sequential(
          (0): Conv2d(4, 8, kernel_size=(3, 3), stride=(1, 1), padding=(1, 1), bias=False)
          (1): BatchNorm2d(8, eps=1e-05, momentum=0.1, affine=True, track_running_stats=True)
        )
        (se): SqueezeExcite(
          (avg_pool): AdaptiveAvgPool2d(output_size=1)
          (conv_reduce): Conv2d(64, 16, kernel_size=(1, 1), stride=(1, 1))
          (relu): ReLU(inplace=True)
          (conv_expand): Conv2d(16, 64, kernel_size=(1, 1), stride=(1, 1))
        )
      )
      (conv2): BasicModule(
        (shortcut): Sequential(
          (0): Conv2d(64, 32, kernel_size=(1, 1), stride=(1, 1), bias=False)
          (1): BatchNorm2d(32, eps=1e-05, momentum=0.1, affine=True, track_running_stats=True)
        )
        (DW): Sequential(
          (0): Conv2d(56, 28, kernel_size=(3, 3), stride=(1, 1), padding=(1, 1), groups=28, bias=False)
          (1): BatchNorm2d(28, eps=1e-05, momentum=0.1, affine=True, track_running_stats=True)
        )
        (Conv): Sequential(
          (0): Conv2d(8, 4, kernel_size=(3, 3), stride=(1, 1), padding=(1, 1), bias=False)
          (1): BatchNorm2d(4, eps=1e-05, momentum=0.1, affine=True, track_running_stats=True)
        )
        (se): SqueezeExcite(
          (avg_pool): AdaptiveAvgPool2d(output_size=1)
          (conv_reduce): Conv2d(32, 8, kernel_size=(1, 1), stride=(1, 1))
          (relu): ReLU(inplace=True)
          (conv_expand): Conv2d(8, 32, kernel_size=(1, 1), stride=(1, 1))
        )
      )
      (shortcut): Sequential()
    )
  )
  (layer3): Sequential(
    (0): BasicBlock(
      (conv1): BasicModule(
        (shortcut): Sequential(
          (0): Conv2d(32, 128, kernel_size=(1, 1), stride=(2, 2), bias=False)
          (1): BatchNorm2d(128, eps=1e-05, momentum=0.1, affine=True, track_running_stats=True)
        )
        (DW): Sequential(
          (0): Conv2d(28, 112, kernel_size=(3, 3), stride=(2, 2), padding=(1, 1), groups=28, bias=False)
          (1): BatchNorm2d(112, eps=1e-05, momentum=0.1, affine=True, track_running_stats=True)
        )
        (Conv): Sequential(
          (0): Conv2d(4, 16, kernel_size=(3, 3), stride=(2, 2), padding=(1, 1), bias=False)
          (1): BatchNorm2d(16, eps=1e-05, momentum=0.1, affine=True, track_running_stats=True)
        )
        (se): SqueezeExcite(
          (avg_pool): AdaptiveAvgPool2d(output_size=1)
          (conv_reduce): Conv2d(128, 32, kernel_size=(1, 1), stride=(1, 1))
          (relu): ReLU(inplace=True)
          (conv_expand): Conv2d(32, 128, kernel_size=(1, 1), stride=(1, 1))
        )
      )
      (conv2): BasicModule(
        (shortcut): Sequential(
          (0): Conv2d(128, 64, kernel_size=(1, 1), stride=(1, 1), bias=False)
          (1): BatchNorm2d(64, eps=1e-05, momentum=0.1, affine=True, track_running_stats=True)
        )
        (DW): Sequential(
          (0): Conv2d(114, 57, kernel_size=(3, 3), stride=(1, 1), padding=(1, 1), groups=57, bias=False)
          (1): BatchNorm2d(57, eps=1e-05, momentum=0.1, affine=True, track_running_stats=True)
        )
        (Conv): Sequential(
          (0): Conv2d(14, 7, kernel_size=(3, 3), stride=(1, 1), padding=(1, 1), bias=False)
          (1): BatchNorm2d(7, eps=1e-05, momentum=0.1, affine=True, track_running_stats=True)
        )
        (se): SqueezeExcite(
          (avg_pool): AdaptiveAvgPool2d(output_size=1)
          (conv_reduce): Conv2d(64, 16, kernel_size=(1, 1), stride=(1, 1))
          (relu): ReLU(inplace=True)
          (conv_expand): Conv2d(16, 64, kernel_size=(1, 1), stride=(1, 1))
        )
      )
      (shortcut): LambdaLayer()
    )
    (1): BasicBlock(
      (conv1): BasicModule(
        (shortcut): Sequential(
          (0): Conv2d(64, 128, kernel_size=(1, 1), stride=(1, 1), bias=False)
          (1): BatchNorm2d(128, eps=1e-05, momentum=0.1, affine=True, track_running_stats=True)
        )
        (DW): Sequential(
          (0): Conv2d(57, 114, kernel_size=(3, 3), stride=(1, 1), padding=(1, 1), groups=57, bias=False)
          (1): BatchNorm2d(114, eps=1e-05, momentum=0.1, affine=True, track_running_stats=True)
        )
        (Conv): Sequential(
          (0): Conv2d(7, 14, kernel_size=(3, 3), stride=(1, 1), padding=(1, 1), bias=False)
          (1): BatchNorm2d(14, eps=1e-05, momentum=0.1, affine=True, track_running_stats=True)
        )
        (se): SqueezeExcite(
          (avg_pool): AdaptiveAvgPool2d(output_size=1)
          (conv_reduce): Conv2d(128, 32, kernel_size=(1, 1), stride=(1, 1))
          (relu): ReLU(inplace=True)
          (conv_expand): Conv2d(32, 128, kernel_size=(1, 1), stride=(1, 1))
        )
      )
      (conv2): BasicModule(
        (shortcut): Sequential(
          (0): Conv2d(128, 64, kernel_size=(1, 1), stride=(1, 1), bias=False)
          (1): BatchNorm2d(64, eps=1e-05, momentum=0.1, affine=True, track_running_stats=True)
        )
        (DW): Sequential(
          (0): Conv2d(114, 57, kernel_size=(3, 3), stride=(1, 1), padding=(1, 1), groups=57, bias=False)
          (1): BatchNorm2d(57, eps=1e-05, momentum=0.1, affine=True, track_running_stats=True)
        )
        (Conv): Sequential(
          (0): Conv2d(14, 7, kernel_size=(3, 3), stride=(1, 1), padding=(1, 1), bias=False)
          (1): BatchNorm2d(7, eps=1e-05, momentum=0.1, affine=True, track_running_stats=True)
        )
        (se): SqueezeExcite(
          (avg_pool): AdaptiveAvgPool2d(output_size=1)
          (conv_reduce): Conv2d(64, 16, kernel_size=(1, 1), stride=(1, 1))
          (relu): ReLU(inplace=True)
          (conv_expand): Conv2d(16, 64, kernel_size=(1, 1), stride=(1, 1))
        )
      )
      (shortcut): Sequential()
    )
    (2): BasicBlock(
      (conv1): BasicModule(
        (shortcut): Sequential(
          (0): Conv2d(64, 128, kernel_size=(1, 1), stride=(1, 1), bias=False)
          (1): BatchNorm2d(128, eps=1e-05, momentum=0.1, affine=True, track_running_stats=True)
        )
        (DW): Sequential(
          (0): Conv2d(57, 114, kernel_size=(3, 3), stride=(1, 1), padding=(1, 1), groups=57, bias=False)
          (1): BatchNorm2d(114, eps=1e-05, momentum=0.1, affine=True, track_running_stats=True)
        )
        (Conv): Sequential(
          (0): Conv2d(7, 14, kernel_size=(3, 3), stride=(1, 1), padding=(1, 1), bias=False)
          (1): BatchNorm2d(14, eps=1e-05, momentum=0.1, affine=True, track_running_stats=True)
        )
        (se): SqueezeExcite(
          (avg_pool): AdaptiveAvgPool2d(output_size=1)
          (conv_reduce): Conv2d(128, 32, kernel_size=(1, 1), stride=(1, 1))
          (relu): ReLU(inplace=True)
          (conv_expand): Conv2d(32, 128, kernel_size=(1, 1), stride=(1, 1))
        )
      )
      (conv2): BasicModule(
        (shortcut): Sequential(
          (0): Conv2d(128, 64, kernel_size=(1, 1), stride=(1, 1), bias=False)
          (1): BatchNorm2d(64, eps=1e-05, momentum=0.1, affine=True, track_running_stats=True)
        )
        (DW): Sequential(
          (0): Conv2d(114, 57, kernel_size=(3, 3), stride=(1, 1), padding=(1, 1), groups=57, bias=False)
          (1): BatchNorm2d(57, eps=1e-05, momentum=0.1, affine=True, track_running_stats=True)
        )
        (Conv): Sequential(
          (0): Conv2d(14, 7, kernel_size=(3, 3), stride=(1, 1), padding=(1, 1), bias=False)
          (1): BatchNorm2d(7, eps=1e-05, momentum=0.1, affine=True, track_running_stats=True)
        )
        (se): SqueezeExcite(
          (avg_pool): AdaptiveAvgPool2d(output_size=1)
          (conv_reduce): Conv2d(64, 16, kernel_size=(1, 1), stride=(1, 1))
          (relu): ReLU(inplace=True)
          (conv_expand): Conv2d(16, 64, kernel_size=(1, 1), stride=(1, 1))
        )
      )
      (shortcut): Sequential()
    )
  )
  (linear): Linear(in_features=64, out_features=10, bias=True)
)
Epoch: [0][0/391]	Time 7.423817 (7.423817)	Data 5.086556 (5.086556)	Loss 3.6420 (3.6420)	Prec@1 10.938 (10.938)
Epoch: [0][20/391]	Time 0.131211 (0.479832)	Data 0.000000 (0.242264)	Loss 2.3463 (4.0303)	Prec@1 14.062 (12.091)
Epoch: [0][40/391]	Time 0.130650 (0.310138)	Data 0.000000 (0.124111)	Loss 2.2147 (3.2471)	Prec@1 19.531 (13.720)
Epoch: [0][60/391]	Time 0.131648 (0.251882)	Data 0.000000 (0.083484)	Loss 2.1752 (2.8917)	Prec@1 16.406 (16.022)
…
