save path : ./checkpointResNet50_0.46_1
Namespace(arch='resnet50', batch_size=256, data='../ILSVRC2012', epochs=90, evaluate=False, lr=0.1, momentum=0.9, pin_memory=True, print_freq=40, resume='', save_dir='./checkpointResNet50_0.46_1', start_epoch=0, weight_decay=0.0001, workers=4)
=> creating model 'resnet50'
=> network :
 ResNet(
  (conv1): Conv2d(3, 64, kernel_size=(7, 7), stride=(2, 2), padding=(3, 3), bias=False)
  (bn1): BatchNorm2d(64, eps=1e-05, momentum=0.1, affine=True, track_running_stats=True)
  (relu): ReLU(inplace=True)
  (maxpool): MaxPool2d(kernel_size=3, stride=2, padding=1, dilation=1, ceil_mode=False)
  (layer1): Sequential(
    (0): Bottleneck(
      (conv1): Conv2d(64, 64, kernel_size=(1, 1), stride=(1, 1), bias=False)
      (bn1): BatchNorm2d(64, eps=1e-05, momentum=0.1, affine=True, track_running_stats=True)
      (conv2): BasicModule(
        (shortcut): Sequential()
        (DW): Sequential(
          (0): Conv2d(29, 29, kernel_size=(3, 3), stride=(1, 1), padding=(1, 1), groups=29, bias=False)
          (1): BatchNorm2d(29, eps=1e-05, momentum=0.1, affine=True, track_running_stats=True)
        )
        (Conv): Sequential(
          (0): Conv2d(35, 35, kernel_size=(3, 3), stride=(1, 1), padding=(1, 1), bias=False)
          (1): BatchNorm2d(35, eps=1e-05, momentum=0.1, affine=True, track_running_stats=True)
        )
        (se): SqueezeExcite(
          (avg_pool): AdaptiveAvgPool2d(output_size=1)
          (conv_reduce): Conv2d(64, 16, kernel_size=(1, 1), stride=(1, 1))
          (relu): ReLU(inplace=True)
          (conv_expand): Conv2d(16, 64, kernel_size=(1, 1), stride=(1, 1))
        )
      )
      (conv3): Conv2d(64, 256, kernel_size=(1, 1), stride=(1, 1), bias=False)
      (bn3): BatchNorm2d(256, eps=1e-05, momentum=0.1, affine=True, track_running_stats=True)
      (relu): ReLU(inplace=True)
      (downsample): Sequential(
        (0): Conv2d(64, 256, kernel_size=(1, 1), stride=(1, 1), bias=False)
        (1): BatchNorm2d(256, eps=1e-05, momentum=0.1, affine=True, track_running_stats=True)
      )
    )
    (1): Bottleneck(
      (conv1): Conv2d(256, 64, kernel_size=(1, 1), stride=(1, 1), bias=False)
      (bn1): BatchNorm2d(64, eps=1e-05, momentum=0.1, affine=True, track_running_stats=True)
      (conv2): BasicModule(
        (shortcut): Sequential()
        (DW): Sequential(
          (0): Conv2d(29, 29, kernel_size=(3, 3), stride=(1, 1), padding=(1, 1), groups=29, bias=False)
          (1): BatchNorm2d(29, eps=1e-05, momentum=0.1, affine=True, track_running_stats=True)
        )
        (Conv): Sequential(
          (0): Conv2d(35, 35, kernel_size=(3, 3), stride=(1, 1), padding=(1, 1), bias=False)
          (1): BatchNorm2d(35, eps=1e-05, momentum=0.1, affine=True, track_running_stats=True)
        )
        (se): SqueezeExcite(
          (avg_pool): AdaptiveAvgPool2d(output_size=1)
          (conv_reduce): Conv2d(64, 16, kernel_size=(1, 1), stride=(1, 1))
          (relu): ReLU(inplace=True)
          (conv_expand): Conv2d(16, 64, kernel_size=(1, 1), stride=(1, 1))
        )
      )
      (conv3): Conv2d(64, 256, kernel_size=(1, 1), stride=(1, 1), bias=False)
      (bn3): BatchNorm2d(256, eps=1e-05, momentum=0.1, affine=True, track_running_stats=True)
      (relu): ReLU(inplace=True)
    )
    (2): Bottleneck(
      (conv1): Conv2d(256, 64, kernel_size=(1, 1), stride=(1, 1), bias=False)
      (bn1): BatchNorm2d(64, eps=1e-05, momentum=0.1, affine=True, track_running_stats=True)
      (conv2): BasicModule(
        (shortcut): Sequential()
        (DW): Sequential(
          (0): Conv2d(29, 29, kernel_size=(3, 3), stride=(1, 1), padding=(1, 1), groups=29, bias=False)
          (1): BatchNorm2d(29, eps=1e-05, momentum=0.1, affine=True, track_running_stats=True)
        )
        (Conv): Sequential(
          (0): Conv2d(35, 35, kernel_size=(3, 3), stride=(1, 1), padding=(1, 1), bias=False)
          (1): BatchNorm2d(35, eps=1e-05, momentum=0.1, affine=True, track_running_stats=True)
        )
        (se): SqueezeExcite(
          (avg_pool): AdaptiveAvgPool2d(output_size=1)
          (conv_reduce): Conv2d(64, 16, kernel_size=(1, 1), stride=(1, 1))
          (relu): ReLU(inplace=True)
          (conv_expand): Conv2d(16, 64, kernel_size=(1, 1), stride=(1, 1))
        )
      )
      (conv3): Conv2d(64, 256, kernel_size=(1, 1), stride=(1, 1), bias=False)
      (bn3): BatchNorm2d(256, eps=1e-05, momentum=0.1, affine=True, track_running_stats=True)
      (relu): ReLU(inplace=True)
    )
  )
  (layer2): Sequential(
    (0): Bottleneck(
      (conv1): Conv2d(256, 128, kernel_size=(1, 1), stride=(1, 1), bias=False)
      (bn1): BatchNorm2d(128, eps=1e-05, momentum=0.1, affine=True, track_running_stats=True)
      (conv2): BasicModule(
        (shortcut): Sequential(
          (0): Conv2d(128, 128, kernel_size=(1, 1), stride=(2, 2), bias=False)
          (1): BatchNorm2d(128, eps=1e-05, momentum=0.1, affine=True, track_running_stats=True)
        )
        (DW): Sequential(
          (0): Conv2d(58, 58, kernel_size=(3, 3), stride=(2, 2), padding=(1, 1), groups=58, bias=False)
          (1): BatchNorm2d(58, eps=1e-05, momentum=0.1, affine=True, track_running_stats=True)
        )
        (Conv): Sequential(
          (0): Conv2d(70, 70, kernel_size=(3, 3), stride=(2, 2), padding=(1, 1), bias=False)
          (1): BatchNorm2d(70, eps=1e-05, momentum=0.1, affine=True, track_running_stats=True)
        )
        (se): SqueezeExcite(
          (avg_pool): AdaptiveAvgPool2d(output_size=1)
          (conv_reduce): Conv2d(128, 32, kernel_size=(1, 1), stride=(1, 1))
          (relu): ReLU(inplace=True)
          (conv_expand): Conv2d(32, 128, kernel_size=(1, 1), stride=(1, 1))
        )
      )
      (conv3): Conv2d(128, 512, kernel_size=(1, 1), stride=(1, 1), bias=False)
      (bn3): BatchNorm2d(512, eps=1e-05, momentum=0.1, affine=True, track_running_stats=True)
      (relu): ReLU(inplace=True)
      (downsample): Sequential(
        (0): Conv2d(256, 512, kernel_size=(1, 1), stride=(2, 2), bias=False)
        (1): BatchNorm2d(512, eps=1e-05, momentum=0.1, affine=True, track_running_stats=True)
      )
    )
    (1): Bottleneck(
      (conv1): Conv2d(512, 128, kernel_size=(1, 1), stride=(1, 1), bias=False)
      (bn1): BatchNorm2d(128, eps=1e-05, momentum=0.1, affine=True, track_running_stats=True)
      (conv2): BasicModule(
        (shortcut): Sequential()
        (DW): Sequential(
          (0): Conv2d(58, 58, kernel_size=(3, 3), stride=(1, 1), padding=(1, 1), groups=58, bias=False)
          (1): BatchNorm2d(58, eps=1e-05, momentum=0.1, affine=True, track_running_stats=True)
        )
        (Conv): Sequential(
          (0): Conv2d(70, 70, kernel_size=(3, 3), stride=(1, 1), padding=(1, 1), bias=False)
          (1): BatchNorm2d(70, eps=1e-05, momentum=0.1, affine=True, track_running_stats=True)
        )
        (se): SqueezeExcite(
          (avg_pool): AdaptiveAvgPool2d(output_size=1)
          (conv_reduce): Conv2d(128, 32, kernel_size=(1, 1), stride=(1, 1))
          (relu): ReLU(inplace=True)
          (conv_expand): Conv2d(32, 128, kernel_size=(1, 1), stride=(1, 1))
        )
      )
      (conv3): Conv2d(128, 512, kernel_size=(1, 1), stride=(1, 1), bias=False)
      (bn3): BatchNorm2d(512, eps=1e-05, momentum=0.1, affine=True, track_running_stats=True)
      (relu): ReLU(inplace=True)
    )
    (2): Bottleneck(
      (conv1): Conv2d(512, 128, kernel_size=(1, 1), stride=(1, 1), bias=False)
      (bn1): BatchNorm2d(128, eps=1e-05, momentum=0.1, affine=True, track_running_stats=True)
      (conv2): BasicModule(
        (shortcut): Sequential()
        (DW): Sequential(
          (0): Conv2d(58, 58, kernel_size=(3, 3), stride=(1, 1), padding=(1, 1), groups=58, bias=False)
          (1): BatchNorm2d(58, eps=1e-05, momentum=0.1, affine=True, track_running_stats=True)
        )
        (Conv): Sequential(
          (0): Conv2d(70, 70, kernel_size=(3, 3), stride=(1, 1), padding=(1, 1), bias=False)
          (1): BatchNorm2d(70, eps=1e-05, momentum=0.1, affine=True, track_running_stats=True)
        )
        (se): SqueezeExcite(
          (avg_pool): AdaptiveAvgPool2d(output_size=1)
          (conv_reduce): Conv2d(128, 32, kernel_size=(1, 1), stride=(1, 1))
          (relu): ReLU(inplace=True)
          (conv_expand): Conv2d(32, 128, kernel_size=(1, 1), stride=(1, 1))
        )
      )
      (conv3): Conv2d(128, 512, kernel_size=(1, 1), stride=(1, 1), bias=False)
      (bn3): BatchNorm2d(512, eps=1e-05, momentum=0.1, affine=True, track_running_stats=True)
      (relu): ReLU(inplace=True)
    )
    (3): Bottleneck(
      (conv1): Conv2d(512, 128, kernel_size=(1, 1), stride=(1, 1), bias=False)
      (bn1): BatchNorm2d(128, eps=1e-05, momentum=0.1, affine=True, track_running_stats=True)
      (conv2): BasicModule(
        (shortcut): Sequential()
        (DW): Sequential(
          (0): Conv2d(58, 58, kernel_size=(3, 3), stride=(1, 1), padding=(1, 1), groups=58, bias=False)
          (1): BatchNorm2d(58, eps=1e-05, momentum=0.1, affine=True, track_running_stats=True)
        )
        (Conv): Sequential(
          (0): Conv2d(70, 70, kernel_size=(3, 3), stride=(1, 1), padding=(1, 1), bias=False)
          (1): BatchNorm2d(70, eps=1e-05, momentum=0.1, affine=True, track_running_stats=True)
        )
        (se): SqueezeExcite(
          (avg_pool): AdaptiveAvgPool2d(output_size=1)
          (conv_reduce): Conv2d(128, 32, kernel_size=(1, 1), stride=(1, 1))
          (relu): ReLU(inplace=True)
          (conv_expand): Conv2d(32, 128, kernel_size=(1, 1), stride=(1, 1))
        )
      )
      (conv3): Conv2d(128, 512, kernel_size=(1, 1), stride=(1, 1), bias=False)
      (bn3): BatchNorm2d(512, eps=1e-05, momentum=0.1, affine=True, track_running_stats=True)
      (relu): ReLU(inplace=True)
    )
  )
  (layer3): Sequential(
    (0): Bottleneck(
      (conv1): Conv2d(512, 256, kernel_size=(1, 1), stride=(1, 1), bias=False)
      (bn1): BatchNorm2d(256, eps=1e-05, momentum=0.1, affine=True, track_running_stats=True)
      (conv2): BasicModule(
        (shortcut): Sequential(
          (0): Conv2d(256, 256, kernel_size=(1, 1), stride=(2, 2), bias=False)
          (1): BatchNorm2d(256, eps=1e-05, momentum=0.1, affine=True, track_running_stats=True)
        )
        (DW): Sequential(
          (0): Conv2d(117, 117, kernel_size=(3, 3), stride=(2, 2), padding=(1, 1), groups=117, bias=False)
          (1): BatchNorm2d(117, eps=1e-05, momentum=0.1, affine=True, track_running_stats=True)
        )
        (Conv): Sequential(
          (0): Conv2d(139, 139, kernel_size=(3, 3), stride=(2, 2), padding=(1, 1), bias=False)
          (1): BatchNorm2d(139, eps=1e-05, momentum=0.1, affine=True, track_running_stats=True)
        )
        (se): SqueezeExcite(
          (avg_pool): AdaptiveAvgPool2d(output_size=1)
          (conv_reduce): Conv2d(256, 64, kernel_size=(1, 1), stride=(1, 1))
          (relu): ReLU(inplace=True)
          (conv_expand): Conv2d(64, 256, kernel_size=(1, 1), stride=(1, 1))
        )
      )
      (conv3): Conv2d(256, 1024, kernel_size=(1, 1), stride=(1, 1), bias=False)
      (bn3): BatchNorm2d(1024, eps=1e-05, momentum=0.1, affine=True, track_running_stats=True)
      (relu): ReLU(inplace=True)
      (downsample): Sequential(
        (0): Conv2d(512, 1024, kernel_size=(1, 1), stride=(2, 2), bias=False)
        (1): BatchNorm2d(1024, eps=1e-05, momentum=0.1, affine=True, track_running_stats=True)
      )
    )
    (1): Bottleneck(
      (conv1): Conv2d(1024, 256, kernel_size=(1, 1), stride=(1, 1), bias=False)
      (bn1): BatchNorm2d(256, eps=1e-05, momentum=0.1, affine=True, track_running_stats=True)
      (conv2): BasicModule(
        (shortcut): Sequential()
        (DW): Sequential(
          (0): Conv2d(117, 117, kernel_size=(3, 3), stride=(1, 1), padding=(1, 1), groups=117, bias=False)
          (1): BatchNorm2d(117, eps=1e-05, momentum=0.1, affine=True, track_running_stats=True)
        )
        (Conv): Sequential(
          (0): Conv2d(139, 139, kernel_size=(3, 3), stride=(1, 1), padding=(1, 1), bias=False)
          (1): BatchNorm2d(139, eps=1e-05, momentum=0.1, affine=True, track_running_stats=True)
        )
        (se): SqueezeExcite(
          (avg_pool): AdaptiveAvgPool2d(output_size=1)
          (conv_reduce): Conv2d(256, 64, kernel_size=(1, 1), stride=(1, 1))
          (relu): ReLU(inplace=True)
          (conv_expand): Conv2d(64, 256, kernel_size=(1, 1), stride=(1, 1))
        )
      )
      (conv3): Conv2d(256, 1024, kernel_size=(1, 1), stride=(1, 1), bias=False)
      (bn3): BatchNorm2d(1024, eps=1e-05, momentum=0.1, affine=True, track_running_stats=True)
      (relu): ReLU(inplace=True)
    )
    (2): Bottleneck(
      (conv1): Conv2d(1024, 256, kernel_size=(1, 1), stride=(1, 1), bias=False)
      (bn1): BatchNorm2d(256, eps=1e-05, momentum=0.1, affine=True, track_running_stats=True)
      (conv2): BasicModule(
        (shortcut): Sequential()
        (DW): Sequential(
          (0): Conv2d(117, 117, kernel_size=(3, 3), stride=(1, 1), padding=(1, 1), groups=117, bias=False)
          (1): BatchNorm2d(117, eps=1e-05, momentum=0.1, affine=True, track_running_stats=True)
        )
        (Conv): Sequential(
          (0): Conv2d(139, 139, kernel_size=(3, 3), stride=(1, 1), padding=(1, 1), bias=False)
          (1): BatchNorm2d(139, eps=1e-05, momentum=0.1, affine=True, track_running_stats=True)
        )
        (se): SqueezeExcite(
          (avg_pool): AdaptiveAvgPool2d(output_size=1)
          (conv_reduce): Conv2d(256, 64, kernel_size=(1, 1), stride=(1, 1))
          (relu): ReLU(inplace=True)
          (conv_expand): Conv2d(64, 256, kernel_size=(1, 1), stride=(1, 1))
        )
      )
      (conv3): Conv2d(256, 1024, kernel_size=(1, 1), stride=(1, 1), bias=False)
      (bn3): BatchNorm2d(1024, eps=1e-05, momentum=0.1, affine=True, track_running_stats=True)
      (relu): ReLU(inplace=True)
    )
    (3): Bottleneck(
      (conv1): Conv2d(1024, 256, kernel_size=(1, 1), stride=(1, 1), bias=False)
      (bn1): BatchNorm2d(256, eps=1e-05, momentum=0.1, affine=True, track_running_stats=True)
      (conv2): BasicModule(
        (shortcut): Sequential()
        (DW): Sequential(
          (0): Conv2d(117, 117, kernel_size=(3, 3), stride=(1, 1), padding=(1, 1), groups=117, bias=False)
          (1): BatchNorm2d(117, eps=1e-05, momentum=0.1, affine=True, track_running_stats=True)
        )
        (Conv): Sequential(
          (0): Conv2d(139, 139, kernel_size=(3, 3), stride=(1, 1), padding=(1, 1), bias=False)
          (1): BatchNorm2d(139, eps=1e-05, momentum=0.1, affine=True, track_running_stats=True)
        )
        (se): SqueezeExcite(
          (avg_pool): AdaptiveAvgPool2d(output_size=1)
          (conv_reduce): Conv2d(256, 64, kernel_size=(1, 1), stride=(1, 1))
          (relu): ReLU(inplace=True)
          (conv_expand): Conv2d(64, 256, kernel_size=(1, 1), stride=(1, 1))
        )
      )
      (conv3): Conv2d(256, 1024, kernel_size=(1, 1), stride=(1, 1), bias=False)
      (bn3): BatchNorm2d(1024, eps=1e-05, momentum=0.1, affine=True, track_running_stats=True)
      (relu): ReLU(inplace=True)
    )
    (4): Bottleneck(
      (conv1): Conv2d(1024, 256, kernel_size=(1, 1), stride=(1, 1), bias=False)
      (bn1): BatchNorm2d(256, eps=1e-05, momentum=0.1, affine=True, track_running_stats=True)
      (conv2): BasicModule(
        (shortcut): Sequential()
        (DW): Sequential(
          (0): Conv2d(117, 117, kernel_size=(3, 3), stride=(1, 1), padding=(1, 1), groups=117, bias=False)
          (1): BatchNorm2d(117, eps=1e-05, momentum=0.1, affine=True, track_running_stats=True)
        )
        (Conv): Sequential(
          (0): Conv2d(139, 139, kernel_size=(3, 3), stride=(1, 1), padding=(1, 1), bias=False)
          (1): BatchNorm2d(139, eps=1e-05, momentum=0.1, affine=True, track_running_stats=True)
        )
        (se): SqueezeExcite(
          (avg_pool): AdaptiveAvgPool2d(output_size=1)
          (conv_reduce): Conv2d(256, 64, kernel_size=(1, 1), stride=(1, 1))
          (relu): ReLU(inplace=True)
          (conv_expand): Conv2d(64, 256, kernel_size=(1, 1), stride=(1, 1))
        )
      )
      (conv3): Conv2d(256, 1024, kernel_size=(1, 1), stride=(1, 1), bias=False)
      (bn3): BatchNorm2d(1024, eps=1e-05, momentum=0.1, affine=True, track_running_stats=True)
      (relu): ReLU(inplace=True)
    )
    (5): Bottleneck(
      (conv1): Conv2d(1024, 256, kernel_size=(1, 1), stride=(1, 1), bias=False)
      (bn1): BatchNorm2d(256, eps=1e-05, momentum=0.1, affine=True, track_running_stats=True)
      (conv2): BasicModule(
        (shortcut): Sequential()
        (DW): Sequential(
          (0): Conv2d(117, 117, kernel_size=(3, 3), stride=(1, 1), padding=(1, 1), groups=117, bias=False)
          (1): BatchNorm2d(117, eps=1e-05, momentum=0.1, affine=True, track_running_stats=True)
        )
        (Conv): Sequential(
          (0): Conv2d(139, 139, kernel_size=(3, 3), stride=(1, 1), padding=(1, 1), bias=False)
          (1): BatchNorm2d(139, eps=1e-05, momentum=0.1, affine=True, track_running_stats=True)
        )
        (se): SqueezeExcite(
          (avg_pool): AdaptiveAvgPool2d(output_size=1)
          (conv_reduce): Conv2d(256, 64, kernel_size=(1, 1), stride=(1, 1))
          (relu): ReLU(inplace=True)
          (conv_expand): Conv2d(64, 256, kernel_size=(1, 1), stride=(1, 1))
        )
      )
      (conv3): Conv2d(256, 1024, kernel_size=(1, 1), stride=(1, 1), bias=False)
      (bn3): BatchNorm2d(1024, eps=1e-05, momentum=0.1, affine=True, track_running_stats=True)
      (relu): ReLU(inplace=True)
    )
  )
  (layer4): Sequential(
    (0): Bottleneck(
      (conv1): Conv2d(1024, 512, kernel_size=(1, 1), stride=(1, 1), bias=False)
      (bn1): BatchNorm2d(512, eps=1e-05, momentum=0.1, affine=True, track_running_stats=True)
      (conv2): BasicModule(
        (shortcut): Sequential(
          (0): Conv2d(512, 512, kernel_size=(1, 1), stride=(2, 2), bias=False)
          (1): BatchNorm2d(512, eps=1e-05, momentum=0.1, affine=True, track_running_stats=True)
        )
        (DW): Sequential(
          (0): Conv2d(235, 235, kernel_size=(3, 3), stride=(2, 2), padding=(1, 1), groups=235, bias=False)
          (1): BatchNorm2d(235, eps=1e-05, momentum=0.1, affine=True, track_running_stats=True)
        )
        (Conv): Sequential(
          (0): Conv2d(277, 277, kernel_size=(3, 3), stride=(2, 2), padding=(1, 1), bias=False)
          (1): BatchNorm2d(277, eps=1e-05, momentum=0.1, affine=True, track_running_stats=True)
        )
        (se): SqueezeExcite(
          (avg_pool): AdaptiveAvgPool2d(output_size=1)
          (conv_reduce): Conv2d(512, 128, kernel_size=(1, 1), stride=(1, 1))
          (relu): ReLU(inplace=True)
          (conv_expand): Conv2d(128, 512, kernel_size=(1, 1), stride=(1, 1))
        )
      )
      (conv3): Conv2d(512, 2048, kernel_size=(1, 1), stride=(1, 1), bias=False)
      (bn3): BatchNorm2d(2048, eps=1e-05, momentum=0.1, affine=True, track_running_stats=True)
      (relu): ReLU(inplace=True)
      (downsample): Sequential(
        (0): Conv2d(1024, 2048, kernel_size=(1, 1), stride=(2, 2), bias=False)
        (1): BatchNorm2d(2048, eps=1e-05, momentum=0.1, affine=True, track_running_stats=True)
      )
    )
    (1): Bottleneck(
      (conv1): Conv2d(2048, 512, kernel_size=(1, 1), stride=(1, 1), bias=False)
      (bn1): BatchNorm2d(512, eps=1e-05, momentum=0.1, affine=True, track_running_stats=True)
      (conv2): BasicModule(
        (shortcut): Sequential()
        (DW): Sequential(
          (0): Conv2d(235, 235, kernel_size=(3, 3), stride=(1, 1), padding=(1, 1), groups=235, bias=False)
          (1): BatchNorm2d(235, eps=1e-05, momentum=0.1, affine=True, track_running_stats=True)
        )
        (Conv): Sequential(
          (0): Conv2d(277, 277, kernel_size=(3, 3), stride=(1, 1), padding=(1, 1), bias=False)
          (1): BatchNorm2d(277, eps=1e-05, momentum=0.1, affine=True, track_running_stats=True)
        )
        (se): SqueezeExcite(
          (avg_pool): AdaptiveAvgPool2d(output_size=1)
          (conv_reduce): Conv2d(512, 128, kernel_size=(1, 1), stride=(1, 1))
          (relu): ReLU(inplace=True)
          (conv_expand): Conv2d(128, 512, kernel_size=(1, 1), stride=(1, 1))
        )
      )
      (conv3): Conv2d(512, 2048, kernel_size=(1, 1), stride=(1, 1), bias=False)
      (bn3): BatchNorm2d(2048, eps=1e-05, momentum=0.1, affine=True, track_running_stats=True)
      (relu): ReLU(inplace=True)
    )
    (2): Bottleneck(
      (conv1): Conv2d(2048, 512, kernel_size=(1, 1), stride=(1, 1), bias=False)
      (bn1): BatchNorm2d(512, eps=1e-05, momentum=0.1, affine=True, track_running_stats=True)
      (conv2): BasicModule(
        (shortcut): Sequential()
        (DW): Sequential(
          (0): Conv2d(235, 235, kernel_size=(3, 3), stride=(1, 1), padding=(1, 1), groups=235, bias=False)
          (1): BatchNorm2d(235, eps=1e-05, momentum=0.1, affine=True, track_running_stats=True)
        )
        (Conv): Sequential(
          (0): Conv2d(277, 277, kernel_size=(3, 3), stride=(1, 1), padding=(1, 1), bias=False)
          (1): BatchNorm2d(277, eps=1e-05, momentum=0.1, affine=True, track_running_stats=True)
        )
        (se): SqueezeExcite(
          (avg_pool): AdaptiveAvgPool2d(output_size=1)
          (conv_reduce): Conv2d(512, 128, kernel_size=(1, 1), stride=(1, 1))
          (relu): ReLU(inplace=True)
          (conv_expand): Conv2d(128, 512, kernel_size=(1, 1), stride=(1, 1))
        )
      )
      (conv3): Conv2d(512, 2048, kernel_size=(1, 1), stride=(1, 1), bias=False)
      (bn3): BatchNorm2d(2048, eps=1e-05, momentum=0.1, affine=True, track_running_stats=True)
      (relu): ReLU(inplace=True)
    )
  )
  (avgpool): AvgPool2d(kernel_size=7, stride=1, padding=0)
  (fc): Linear(in_features=2048, out_features=1000, bias=True)
)
 * Prec@1 18.936 Prec@5 40.564
 * Prec@1 33.244 Prec@5 59.402
 * Prec@1 39.490 Prec@5 66.072
 * Prec@1 40.464 Prec@5 66.834
 * Prec@1 45.188 Prec@5 71.568
 * Prec@1 46.600 Prec@5 72.678
 * Prec@1 50.000 Prec@5 76.106
 * Prec@1 50.050 Prec@5 75.810
 * Prec@1 50.384 Prec@5 76.542
 * Prec@1 50.598 Prec@5 76.458
 * Prec@1 49.934 Prec@5 75.800
 * Prec@1 53.574 Prec@5 78.600
…
